…
This is y_test:  [1.62218324 1.45904225 1.06947251 ... 1.93969002 0.09788849 1.28582521]
The max is =  2.05629814144
The min is =  -21.755709069
The max label =  2.05629814144
The min label =  -21.755709069
Dumped MinMax scaler
Model: "functional_1"
_________________________________________________________________
Layer (type)                 Output Shape              Param #   
=================================================================
input_1 (InputLayer)         [(None, 2)]               0         
_________________________________________________________________
dense (Dense)                (None, 128)               384       
_________________________________________________________________
dense_1 (Dense)              (None, 128)               16512     
_________________________________________________________________
dense_2 (Dense)              (None, 128)               16512     
_________________________________________________________________
dense_3 (Dense)              (None, 128)               16512     
_________________________________________________________________
dense_4 (Dense)              (None, 128)               16512     
_________________________________________________________________
dense_5 (Dense)              (None, 128)               16512     
_________________________________________________________________
dense_6 (Dense)              (None, 128)               16512     
_________________________________________________________________
dense_7 (Dense)              (None, 128)               16512     
_________________________________________________________________
dense_8 (Dense)              (None, 1)                 129       
=================================================================
Total params: 116,097
Trainable params: 116,097
Non-trainable params: 0
_________________________________________________________________
The Learning Rate is   0.001
Epoch 1/5000
 1/10 [==>...........................] - ETA: 0s - loss: 2.3802 4/10 [===========
…
